MyVariableRNN_temporal_and_static.pth (torch_old, 36540 bytes, 12 tensors)

weight f4 [75, 59]
00000000: 4ccd 37be 3afb d3bd c679 0c3c 7c67 a1bd
00000010: 36c5 26be 4d4a 363d 1cde 40bc da85 f5bd
00000020: de66 1ebe 9896 073e 2299 2dbd d272 56bd
00000030: 8b60 2dbe e11e 4f3d 32c6 0cbe 9f0c 6b3d
00000040: 0db9 75bd 4dc7 16bd 45c2 583c 8ddb 173d
00000050: 12e1 b13c e576 7dbc d921 77bd 5c8b 673d
00000060: f290 07be 50ec bcbc 9716 94bd 8cf1 28bd
00000070: 8dff 74bd 754f b93d 16f1 05be 371d c83c
00000080: 95ae 853d d7c0 4abd 647b 193d f51a ad3d
00000090: ab1e 8b3d c26d b3bd b8e8 14be a4ca 1ebd
000000a0: 80ce d13d f10b a73d 6aa9 c33d b709 dabd
000000b0: 4a75 a1bc ad81 eabb 1af5 a83d 0fc7 4e3d
000000c0: 0718 9f3d aa42 01be 619e a33d 2ea6 923d
000000d0: 1ac1 2c3d 03f2 b33c 834c a63d bbb9 a3bd
000000e0: ab50 d83b e80d 1c3a c994 653b 7f91 fd3d
000000f0: a12c adbe 9f8b 22be 6a5e 813e 4939 e83e
00000100: 8036 9cbd 6097 8f3e 77be a73e bcce 003e
00000110: f5f9 99be c54b f23e 156c 0d3e 6efc e9be
00000120: c8dc 293e bc13 1abe 1bdc f2be 7e4b d0be
00000130: c8d5 533d ff09 a83e 0c6d 573e dc18 39be
00000140: 3908 593e d8e1 a93d 24c7 00bf ab24 82be
00000150: fe34 8a3f ce68 43bd e3d3 6dbe 3b1f 94bd
00000160: 826e 283e 905a 06bf 97ec 3a3e ac60 003f
00000170: 2a30 523e 84d3 15bf 4c9d 2abe 2ea2 873f
00000180: 4e58 0d3f 206c 99be 4439 44be 336f 203f
00000190: 460c 07bf 29bf 93bd 3d49 1cbe 4cbe a23e
000001a0: 6d36 20be 71c9 843e bfc2 573d f597 703e
000001b0: a007 46bc 914f b6bd 21d9 393e a944 01be
000001c0: c147 53be b8d5 18be d870 8c3d 8bd1 0c3d
000001d0: b481 efbd 3ead 62be 61dd 7dbb 0d23 a5bd
000001e0: bf4e e2bd 9de9 05be bd49 f03e c404 e6bf
000001f0: fd97 b7bd 8bc6 d6be 21e2 4bbd a350 1cbf
00000200: 282e 3f3f fa63 60be 1f7d d23d d044 75be
00000210: 976d 47be 6eff 08c0 10e0 5dbc 42be f23e
00000220: 7b90 503e c5fb 8bbe 84db 9c3e 0f64 87bf
00000230: 8991 3fbf c37c 41bf c46d 9bbf a5a8 ed3e
00000240: 6727 833f daec 4b3f 5910 8b3c 1a2f 78be
00000250: 0a80 1b3f 0dd1 e23e 053c 64bf 15b1 8bbe
00000260: 1b9d a23f 7f23 31bf 58db b03e c1a7 01bf
00000270: 1290 133e aba9 77be e6af 34bf a870 5ebe
00000280: ee71 c6bc db0e bb3b 4bd6 6bbe f59f c53b
00000290: 14d0 6dbe 8f21 12bf 070b eabe 3a8d d3bd
000002a0: 2e58 84bf d102 34bf 43c6 4c3f 5953 2abf
000002b0: 8c1b 4a3e 7fcc 173d a40f 85ba f6d0 88bc
000002c0: d6d5 453c ca1c 3dbf 3334 f33d ff98 6ebe
000002d0: 5bb1 32bf f3fa bdbd 9555 633e ec60 973e
000002e0: 9e5c 9b3e 822b 123e 89ff e13d d78f 97bf
000002f0: 224a 78bf 0775 8ebc 0422 ff3e 1c28 3ebe
00000300: 7b60 02c0 13c8 993e 1dee a43f fa2d 873e
00000310: 8b32 303e c05b c9bf 3fb9 bc3e 2322 5f3e
00000320: 11b0 253f 45e1 533e 96e3 503f bf6d 2a3e
00000330: 9b38 ff3e 9114 53bc 5dde 093f 1418 89bf
00000340: 9336 543f fe5d ac3e ef29 c6be 99a9 74bf
00000350: 6b0c 9a3e 4fc5 143d efd8 1a3f 12a6 a1ba
00000360: e504 d3be e8a8 e73e 9803 40bf 79c9 2cbf
00000370: a0dd b03f 60a4 7fbf 3221 46bf b473 533f
00000380: 6d77 423d 4c00 adbf e037 14bc 7a36 893f
00000390: 2bcc fc3d c472 c8bf 4e4f 1ebf 9a24 6a3f
000003a0: 698d 393d 88dd 81bc e433 8ebb e340 8fbd
000003b0: b9c0 003c ac97 433e 9d67 953e a718 2d3e
000003c0: 2509 6e3e f87e 39bf 04ed fa3e 6c3d cdbe
000003d0: c2c4 453e 187c 223e 7d18 b93e ab1f 5c3f
000003e0: ce5c 8fbf a06e 76bf 9a2d 753f 53d4 2dbf
000003f0: 744b 06be 98d1 3d3f b1c9 423e f62e f5be
-0.17949408 -0.10350652 0.008573955 -0.07881066 -0.16286168 0.044504452 -0.011771705 -0.11988421
-0.15468928 0.1324104 -0.042382367 -0.052355595 -0.1693136 0.050566558 -0.1374748 0.057385083
-0.05999093 -0.03681116 0.013229911 0.037074614 0.021713767 -0.015470241 -0.060335014 0.056529388
-0.13238886 -0.023061901 -0.07230871 -0.041245982 -0.059814025 0.09048358 -0.13080248 0.024427993
0.065274395 -0.049500313 0.03747119 0.08452407 0.06792959 -0.08761169 -0.145419 -0.038767472
0.10244465 0.081565745 0.095537975 -0.10646384 -0.019709248 -0.007156572 0.082498744 0.050482806
0.07768255 -0.12623087 0.07989193 0.071606025 0.042176344 0.021965986 0.08120062 -0.0799441
0.0066014132 0.0005953 0.003503131 0.12381267 -0.33823112 -0.15873574 0.25267345 0.45356205
-0.076275826 0.28045177 0.327625 0.12578863 -0.30073515 0.47323433 0.13810761 -0.457004
0.16588128 -0.1504659 -0.47433552 -0.40682596 0.05171755 0.32820126 0.21037692 -0.1807589
0.21194543 0.082950294 -0.50303864 -0.254186 1.0797422 -0.04770737 -0.2322536 -0.07232519
0.16448405 -0.5248194 0.18254314 0.5014751 0.20526186 -0.5852587 -0.16661566 1.0596368
0.5521287 -0.29965305 -0.1916247 0.62669677 -0.527531 -0.07214195 -0.15262313 0.3178581
-0.15645762 0.25934938 0.05267596 0.23495467 -0.012086779 -0.08901895 0.18149234 -0.12623848
-0.2063284 -0.14925277 0.06857461 0.034379523 -0.11694661 -0.22136399 -0.0038736688 -0.08063326
-0.11050176 -0.13077398 0.46931258 -1.7970204 -0.08964536 -0.4194835 -0.0497762 -0.6106054
0.74679804 -0.21913138 0.10277771 -0.23952031 -0.19475399 -2.1405902 -0.01354219 0.4741078
0.20367615 -0.27340522 0.30636227 -1.057741 -0.74831444 -0.75580996 -1.2142873 0.46417728
1.02464 0.7965828 0.016975569 -0.24236718 0.6074225 0.44300118 -0.8915408 -0.2728354
1.2704195 -0.6919479 0.34542346 -0.506466 0.14410427 -0.24185817 -0.705809 -0.21722662
-0.024224248 0.005708558 -0.23030965 0.0060310313 -0.23223907 -0.57082456 -0.45711538 -0.10329671
-1.033941 -0.703168 0.79990023 -0.6653343 0.19737071 0.037060257 -0.0010151756 -0.016701203
0.012074908 -0.73872054 0.118751906 -0.23300551 -0.6980187 -0.092763804 0.22200616 0.29566133
0.303441 0.1427441 0.110350676 -1.1840771 -0.9698812 -0.017389787 0.4983064 -0.18569988
-2.0371387 0.30035457 1.2885166 0.26402265 0.1720678 -1.5731125 0.36860082 0.21790366
0.6472178 0.20691402 0.8159727 0.16643427 0.49847874 -0.012883321 0.53854924 -1.0710473
0.82895774 0.3366546 -0.38703868 -0.95571285 0.300876 0.03632098 0.60487264 -0.0012332818
-0.41214672 0.45246053 -0.75005484 -0.6749492 1.3817635 -0.9986019 -0.773944 0.82598424
0.047477175 -1.3515716 -0.009046525 1.071975 0.123436294 -1.5660024 -0.6183976 0.914621
0.045300875 -0.015852705 -0.004339682 -0.06994798 0.007858449 0.19100827 0.29180613 0.16903935
0.23245676 -0.72459364 0.49008954 -0.40085924 0.19313338 0.1586765 0.36151496 0.8598582
-1.1200197 -0.9626255 0.9577271 -0.67902106 -0.1311472 0.7414794 0.19022252 -0.4788739

bias f4 [75]
00000000: eaab 22bd 408c 283e c2d9 94bd 761f 153e
00000010: 9632 f53c 7573 d1bc d215 2fbe 5bde e23d
00000020: 82ee cfbd 4ee0 8c3c 88aa 32bd 97a9 c6bd
00000030: 099e 0bbc ccc2 3b3d 34f8 d4bc 8766 003e
00000040: cbc8 453d 76c7 d4bd a66d 7a3d 9cd7 31bd
00000050: d016 a7bd 8656 253d 20e0 a93d b8d7 c6bd
00000060: e635 ce3d 4f9d b53b cad2 ba3d 7feb 853a
00000070: 116b debd 055e 03be 18fd adbe 5680 87be
00000080: 9668 f2bd 3192 2cbe 90c7 3cbd 187c 343e
00000090: c241 803d fe49 c33d 5219 0c3e cb17 2abe
000000a0: 765a e7bd 611d 3b3e 9b40 863a 64f9 523b
000000b0: 1324 3c3d e6ed aa3d 6b72 263a b1b9 e83d
000000c0: 270a 703d eff4 33bd e956 3c3d 43d4 b7bd
000000d0: 0c71 1e3d af64 17bd 6dd0 edbd 6969 a3bd
000000e0: 2afa e6bd c72f 2a3d b97a 0a3d 6f97 383e
000000f0: 4383 9bbd 9929 03be feee bdbc 65da 2b3e
00000100: 249d 943d 8f86 fa3c ec9a e5bd b4b0 db3d
00000110: 386f d2bc 3634 08be ba4c b2bc a478 bcbc
00000120: e681 b83d 83f4 7abd d4ef 7abe
-0.03971473 0.16459751 -0.072680965 0.14562783 0.029931348 -0.02556775 -0.17098168 0.11077567
-0.10152914 0.0171968 -0.043619663 -0.097003154 -0.008521565 0.04584007 -0.025997259 0.12539111
0.048287194 -0.10389607 0.061139725 -0.04341851 -0.08158648 0.04036572 0.082947016 -0.09709114
0.10068874 0.0055424343 0.09122236 0.0010217278 -0.10860265 -0.12828834 -0.33982158 -0.264651
-0.118363544 -0.16852643 -0.046088755 0.17625463 0.06262542 0.09535597 0.13681534 -0.16610639
-0.11296551 0.18272926 0.0010242643 0.0032192105 0.04593284 0.08346157 0.0006349447 0.11363543
0.058603432 -0.04393476 0.04598132 -0.089760326 0.03868203 -0.036961254 -0.1161202 -0.0797909
-0.11278184 0.04154947 0.033808444 0.18026517 -0.075933956 -0.12808837 -0.02318525 0.1678253
0.07256535 0.03058174 -0.1121119 0.10727063 -0.025687799 -0.13301167 -0.021765102 -0.023006745
0.09009151 -0.06126834 -0.2450555

weight f4 [10, 75]
00000000: 63a6 9abd 93ff bfbe 3eb6 0dbe eaf6 1abe
00000010: 2f70 26be fc54 bf3a f743 263d 0af6 21ba
00000020: 8280 a0bf 72b9 e83d fbae b43d 0fab 50bb
00000030: c4de 063d 54b2 a3bc 87b8 98bd d18d a23e
00000040: 5748 3f3d 367b 0ebf dafa 60bf b666 b7bd
00000050: ea55 503e 0d74 80bd 3d65 283f 3dfc 083d
00000060: c729 123e af78 71bd 31c2 633e 3f7c 3ebe
00000070: 1054 c03d 75e0 02bf 50a4 c43d 12d9 2b3f
00000080: 936d 943d 0a20 593d 4cf8 10bf 1af8 22be
00000090: 98b7 c2be dd73 63be 3530 ec3c 7ec6 d13c
000000a0: be16 6d3e d1ec c8bc 075d 29be 8371 87be
000000b0: 964d bcbb 69f7 4abf d20e d63d dfa9 25be
000000c0: 6813 c33c 7577 5cbf 08d8 dcbd 645c b5bd
000000d0: 7d10 bdbd 5fe4 1abf cb2c 313d 2ed6 18be
000000e0: 7ac5 80bd 185c 3f3d b894 853d ff02 e7bd
000000f0: 29e2 93bd d115 cf3b a2ef e0be 3636 a9bd
00000100: 2836 d8bc e94a f8bb bed0 23bd 52e0 83bd
00000110: 29c0 7dbe de0f 29be 4c1b 0e3d c7de bcbd
00000120: a9ff 2a3c b601 52bd ae2e 55bc 4e43 01bd
00000130: f0c5 91be 2d18 2c3e e959 7abc e6d6 a6be
00000140: c796 953d 2a43 86be 5336 1bbf 22a3 883e
00000150: 4cd3 10bf e0a9 70be d5d6 32be fdb7 6e3d
00000160: db25 ecbd 84d2 27bf 451e 90bf 8233 bebd
00000170: 86bb 20bd d8ba 00bf 1eba 473d b51f 893d
00000180: 9223 663e fb17 bf3e a2b0 1cbe a21c 2fbf
00000190: 0497 1e3c 75d0 ecbd 41cd e6be e97e 08be
000001a0: 21b0 7b3e 428a 84bf e6ce f23e 22b9 9ebd
000001b0: 6952 97bd 2166 84be 89d5 03bf d122 0dbf
000001c0: e609 ca3d 5b57 a0bb bb72 283d 2772 8cbe
000001d0: 44fb dabe 9014 c6be fcfe 263e 8e45 89bc
000001e0: a7d6 a93c 8489 41be 87df ecbe d54a febc
000001f0: 0ae7 42bd 2fac e0bc 0c21 633d cca9 fbbe
00000200: f83d babe bfa4 85bc 9043 d8bd b9d8 a4bd
00000210: 4af8 9f3d 50de b03e e407 5dbf dabc 563e
00000220: e027 64be 968f 333d 39c7 543d 1a21 73bf
00000230: e44b 7f3e 3a8a 88bf 5aac d4bd 1a4e ce3c
00000240: bd58 2dbf 7fb5 b9bc a74c 9ebe de12 d13d
00000250: d3a8 853d 7060 e2be 1003 6b3d ca8c 7dbd
00000260: 3035 883e 3b95 c8be 311b 09bf 94f1 8f3d
00000270: 0399 f03d 890e 923e dd80 d9bd c133 213c
00000280: 8a26 cd3d a8f0 b13e 59b9 b7bd 8129 af3e
00000290: 823b c43c 4e49 b1bd 18ce 8e3e 587e 90bb
000002a0: 419d f4bc d7a8 823d 0e95 ea3e a273 a6bd
000002b0: e2c9 edbe 2825 3dbd fd65 2fbc 38ec ff3c
000002c0: 83bf d2bd 1276 51be db29 823d 5e1f 6ebd
000002d0: e127 ddbe 1c92 39bf 288a cabd 6de9 883c
000002e0: 0e61 86be b19b e6be fc8e 293e c502 33bf
000002f0: 8b98 63bf b8c8 a1bb 6fe9 f6bd e45c 30bf
00000300: c903 69bd 67f9 6dbf f507 a03c 3770 043f
00000310: 8b72 32be 226d c53d 844a d9bd 44e3 7a3d
00000320: db0f 863e a957 863d 168f 343e 4004 953e
00000330: 5b9f aa3d 1269 213d 206e 8ebd e995 8f3c
00000340: 8575 26bf 4980 9e3e 343a d4be 0542 8dbd
00000350: e123 d1be e891 6d3c 7175 093f 16a8 1f3d
00000360: f6a1 6dbf fe24 ab3d dafd 3fbd ad88 07be
00000370: eb0e cf3e 9a5d 8dbd b83c 7dbf f8af d43d
00000380: 0239 f3bd f39e 5fbd 339f dcbd ee45 1abf
00000390: b507 aebc d464 c7be 48d0 c73d 1471 fdbd
000003a0: c270 9ebd 3f33 acbd 9969 72be 9470 a13e
000003b0: 2f18 be3d 65ec 10bd 0fe6 e73d 587a ddbe
000003c0: bb3a 47bf a8ed 09be ca9c d63d 49a4 723e
000003d0: a2c0 bdbc 4af2 42be 6359 3d3e 8ff7 f4bd
000003e0: bd45 d93e 0e6c 4bbf 30d8 553d 40bb bd3e
000003f0: e1b7 9ebe 0222 acbe 163e c53e 4f58 8b3e
-0.07551267 -0.37499675 -0.13839051 -0.15133253 -0.16253732 0.0014597471 0.04059216 -0.0006178325
-1.2539217 0.11363496 0.088224374 -0.003184024 0.03292729 -0.019982494 -0.07457071 0.31748822
0.046699848 -0.55656755 -0.8788277 -0.089551374 0.20345274 -0.06272135 0.6577948 0.03344368
0.1427375 -0.058952983 0.22242047 -0.18602084 0.09391034 -0.51123744 0.096016526 0.671281
0.07247462 0.05300907 -0.5662887 -0.15914956 -0.38030696 -0.22212167 0.02883158 0.025607344
0.23153207 -0.024526985 -0.16539393 -0.2645379 -0.0057465537 -0.7928377 0.104520455 -0.16178082
0.023812965 -0.86119777 -0.10783392 -0.08855513 -0.092316605 -0.60504717 0.04325561 -0.14925453
-0.06287666 0.046718687 0.065225065 -0.11279868 -0.07220871 0.0063197394 -0.43932825 -0.08262293
-0.026393011 -0.0075772894 -0.039993994 -0.0643927 -0.24780335 -0.16509959 0.034694 -0.09222179
0.010436931 -0.051271163 -0.013011618 -0.031558327 -0.28471327 0.16806097 -0.015280225 -0.3258583
0.07304149 -0.26223117 -0.6062977 0.2668696 -0.56572413 -0.23502302 -0.17464764 0.058280934
-0.11530658 -0.65555596 -1.1259238 -0.09287168 -0.039241336 -0.502851 0.04876148 0.06695501
0.22474506 0.37322983 -0.15301755 -0.68403065 0.00967956 -0.115631975 -0.4507847 -0.13329662
0.24578907 -1.0354693 0.47423476 -0.07750155 -0.07388765 -0.25859168 -0.51497704 -0.5513125
0.09865169 -0.004893226 0.04112504 -0.2743084 -0.42769825 -0.38687563 0.16308206 -0.0167568
0.020732237 -0.18900114 -0.46264288 -0.031041542 -0.047583617 -0.027425854 0.055451438 -0.49152982
-0.36375403 -0.016313909 -0.105597615 -0.08049149 0.07811029 0.3454461 -0.86340165 0.20970479
-0.22280836 0.043838106 0.051947806 -0.94972384 0.24931294 -1.0667183 -0.10384436 0.025183726
-0.6771353 -0.022669552 -0.30917856 0.10208677 0.06526341 -0.442142 0.057375968 -0.061901845
0.2660308 -0.39176354 -0.53557116 0.07028499 0.11747935 0.28526714 -0.10620282 0.009838999
0.10017116 0.3475392 -0.08970899 0.34211352 0.023954157 -0.0865656 0.27891612 -0.0044095926
-0.02986014 0.0637986 0.45816845 -0.08127524 -0.46443087 -0.046178013 -0.010705468 0.031240568
-0.10290434 -0.20455196 0.063556395 -0.058135383 -0.43194488 -0.7248857 -0.098896325 0.016712869
-0.26245922 -0.45040658 0.1655845 -0.699261 -0.8890464 -0.0049372576 -0.12056243 -0.6889174
-0.056888375 -0.9295868 0.019535044 0.51733726 -0.17426507 0.09639956 -0.10609916 0.061251894
0.26183972 0.065596886 0.17632708 0.29104805 0.08331176 0.039406843 -0.069545984 0.017527537
-0.6502307 0.3095725 -0.41450655 -0.06897358 -0.40847686 0.014500119 0.53694826 0.03897866
-0.9282526 0.08356665 -0.04687295 -0.13235731 0.4044107 -0.06902619 -0.98920774 0.10385126
-0.11876108 -0.054594945 -0.10772552 -0.60262954 -0.02124391 -0.38944113 0.09756523 -0.123750836
-0.077363506 -0.08408212 -0.23673095 0.31531203 0.092819564 -0.035381693 0.11323177 -0.43257403
-0.7782399 -0.13469565 0.10479124 0.23695482 -0.023163144 -0.19037738 0.1849113 -0.119612806
0.4243602 -0.79461753 0.052208126 0.37056923 -0.30999663 -0.33619696 0.3852393 0.27215812

bias f4 [10]
00000000: 7d39 17bf 0741 ecbe 8e97 c9bc bd4b 63be
00000010: 156d 7ebe 5025 fbbb 17f5 7cbe 23af dfbe
00000020: 8001 f83d 0b9f 223e
-0.59072095 -0.46143362 -0.0246084 -0.2219686 -0.24846299 -0.00766436 -0.2470287 -0.43688306
0.12109661 0.15880983

weight_ih_l0 f4 [12, 10]
00000000: deeb fabd 22bc 893f 870f 863e 99b9 453f
00000010: 8288 2bbf fcc6 9cbe fa31 b93e 611f 193e
00000020: e77e a73f 866c 063f 2532 193f f2c9 f93d
00000030: 0a82 3bbe 9444 a43e 685b c93e 0fc8 28bf
00000040: 724f 133f f1f3 06bd 663a bc3e 23d4 9c3e
00000050: 734d 003d 0117 90be 64f6 c8bc 450f 723f
00000060: d13b 9a3d 6500 fdbe a2fc 993f 8e40 ccbe
00000070: 852e 2f3f a197 823f 0e98 ef3e b65f af3b
00000080: 2632 87be dd51 f73e 8893 9dbf 0c22 27bf
00000090: 9a1e 733e db28 7ebf 1c4b 9e3f ec10 743e
000000a0: a09f 753f 78a3 81be 130a 8a3d aa92 363e
000000b0: 5956 8dbe 3fbc ce3d ca39 8b3d 5d36 e53e
000000c0: 2c8e 00bf d82f 843e 41f6 32bf d594 56be
000000d0: 8944 783d d724 1fbf afe0 82be 678b 083e
000000e0: 521d fdbd 818f c1bd b7af a23c 1bd9 073f
000000f0: 2170 1a3e 7b2a 163e 57a8 f4bc ac0e 42be
00000100: d41c ac3d 515a c4be 6908 2fbe 27b7 773e
00000110: 8f54 df3e 1914 2a3e e4f9 10bf 7a65 cbbe
00000120: e551 f93c c117 acbc 8750 1b3e c6e1 0dbc
00000130: 35a7 e4be e68f 95be 9252 1fbe 2947 323c
00000140: 7d4a 493e 7938 5cbe dfcb 223f b7db 193d
00000150: b07a 743e 3067 6c3d aa2b a6be 373f 50be
00000160: edf1 603e e330 073f e36d a0be ef86 76be
00000170: 3f09 a73e 279e abbe eef7 25bf 2f46 ddbd
00000180: d805 393e 59ae 3e3e c82a 75be e633 743e
00000190: 40de 51be b559 c6be de2b 1b3f a75e f5be
000001a0: f4ac 08bb 6c18 453f f39b 6f3e b858 3a3e
000001b0: 1ff5 5fbf f94f a3bd 7d73 21bf 4110 abbe
000001c0: 4cdf c0bc 6501 e6bd 2a1b 27bf 76c3 08be
000001d0: 4afa bbbe 7cd3 0abf a893 003f c5aa 963e
-0.12252019 1.0760539 0.2618372 0.77236325 -0.6700517 -0.30620563 0.36170942 0.14953376
1.3085603 0.52509344 0.5984214 0.12196721 -0.18311325 0.3208357 0.3932755 -0.65930265
0.575431 -0.032947484 0.36763304 0.30630597 0.03132386 -0.2814255 -0.02453155 0.9455455
0.0753094 -0.49414364 1.2030222 -0.39893 0.6843036 1.0202523 0.46795696 0.005351986
-0.26405448 0.48304644 -1.2310648 -0.65286326 0.23742142 -0.9928109 1.2366672 0.2383458
0.95946693 -0.2532003 0.06740203 0.17829385 -0.2760494 0.10094499 0.06798132 0.44768038
-0.5021694 0.25817752 -0.69907004 -0.20955212 0.060612235 -0.6216559 -0.25562045 0.13334428
-0.12359108 -0.09451199 0.019859178 0.5306565 0.15081836 0.14664643 -0.029865427 -0.1895091
0.08403936 -0.38350156 -0.17093052 0.24190961 0.436192 0.16609229 -0.566313 -0.39725858
0.030434558 -0.02100742 0.15167437 -0.008659786 -0.4465882 -0.29211348 -0.15558842 0.010881224
0.19657321 -0.21505918 0.6359233 0.037563052 0.23874927 0.057715595 -0.32455188 -0.20336615
0.21967287 0.5280897 -0.31333837 -0.2407491 0.32624242 -0.33519098 -0.64831436 -0.10804402
0.18068635 0.18621196 -0.23942101 0.23847923 -0.20494938 -0.38740316 0.6061381 -0.47923777
-0.0020855041 0.7699039 0.23399334 0.18197906 -0.874834 -0.07974238 -0.63066846 -0.33410838
-0.023543976 -0.11230735 -0.65275824 -0.13355812 -0.36714393 -0.5422895 0.50225306 0.29427162

weight_hh_l0 f4 [12, 4]
00000000: 13e0 a9be 30ef f43e 90a8 a9bd 867b bb3d
00000010: 574f 283f 149c 11bf ebb4 f8bd dd8d 9d3c
00000020: 4f47 843e c94c 293d 828f ae3d f9fc e43e
00000030: 225a 943d d55b d1be 772d fabe 3be8 ad3f
00000040: 88e6 743f 0d20 b4be ed70 743f 8ec1 92be
00000050: 69f4 a0bd 8882 88bf e127 ab3e 8713 7abf
00000060: 78c9 bbbd b487 bbbf e928 273f e1a7 77bf
00000070: 2946 da3e 4d0b 8abf bd94 513f 337a 39bf
00000080: 61de dd3d d395 393e 82fe cf3e 45c3 3d3f
00000090: 9266 86be e2f9 363f b038 a8be 3ae8 8b3e
000000a0: f486 5c3f 6a6f 47bd cd6f 113f 9b78 ea3e
000000b0: cdae 283f e9f0 9b3e 7925 033e 6c7b 303f
-0.33178768 0.47838736 -0.08284104 0.091544196 0.65746063 -0.5687878 -0.12143882 0.019232685
0.25835654 0.041332994 0.08523466 0.44724253 0.07243754 -0.40890375 -0.48862812 1.3586496
0.9566426 -0.35180703 0.9548481 -0.28663296 -0.078591175 -1.0664835 0.33428863 -0.97686046
-0.091692865 -1.4650788 0.652968 -0.9674054 0.42631653 -1.0784699 0.8186758 -0.72452086
0.10833431 0.1812356 0.40623862 0.7412608 -0.2625013 0.7147504 -0.3285575 0.27325612
0.8614342 -0.048690237 0.5681122 0.4579514 0.65891725 0.30457237 0.12807263 0.68938327

bias_ih_l0 f4 [12]
00000000: 0f59 d83e 0bd0 063e 130c 313e 96e0 74bd
00000010: 5a74 ac3f 32b9 ac3f 4634 823f fbd8 823f
00000020: 978f c8be 49eb 0ebd a04c 353e 8e64 70be
0.42255446 0.131653 0.17289762 -0.059784494 1.3473008 1.3494017 1.0172203 1.0222467
-0.3917205 -0.034892354 0.17705011 -0.23475859

bias_hh_l0 f4 [12]
00000000: 2f3a f23e c32e 9abd 83c2 06be 8a52 583e
00000010: 0315 883f 8891 c73f d290 aa3f 5ba2 b73f
00000020: 2baa 743e a079 2cbe 87d0 133e 1e63 7a3e
0.47310016 -0.0752845 -0.13160138 0.21125236 1.0631412 1.5591288 1.3325446 1.4346422
0.23893039 -0.16843271 0.14435016 0.24451873

weight f4 [8, 4]
00000000: 1f9a 9ebe ec73 72bd 6b1a e73e ae42 853f
00000010: 2f17 013f 4922 62be 98da 213f a8b6 8e3f
00000020: a011 bbbe 1b40 b3be 4c97 c0bf 3334 acbe
00000030: a676 793f a3a4 03bd 251f 073f c575 713f
00000040: 1844 dbbe f758 eebe a308 28bf 68aa c8be
00000050: cae2 193f 0397 e7be ea50 9d3e 77b5 c13e
00000060: 311b 65bd 6df0 1bbf 2947 4ebf 0327 72be
00000070: 7044 bc3e d279 76be d34a 9dbc 706b 683f
-0.3097696 -0.059192583 0.45137343 1.0410974 0.50426 -0.22083391 0.6322417 1.1149492
-0.36536884 -0.35009846 -1.5046172 -0.33633575 0.9744667 -0.03213943 0.527819 0.9432033
-0.4282539 -0.4655225 -0.6563818 -0.3919251 0.6011168 -0.452324 0.30725795 0.3783376
-0.055934135 -0.60913736 -0.8057733 -0.23647694 0.36770964 -0.24069908 -0.019200718 0.90788937

bias f4 [8]
00000000: ddaf 113f 2349 823d fb46 463e 74f4 2a3f
00000010: 742e a13e 658b 5bbd 25e3 913d b952 233f
0.5690897 0.06361606 0.19363014 0.66779256 0.31480753 -0.053599734 0.071234025 0.637981

weight f4 [2, 8]
00000000: 6177 113f bf82 203f 14cb 9dbf a751 623e
00000010: 1457 03bf 89fd e53e eb5e 86bf 5bfb bc3e
00000020: 7a25 d9be 1a3a 83be d790 583f 9e2e 02bf
00000030: 8ecf 1b3f 8516 403e 6ffb fa3e 9784 1abf
0.5682278 0.626995 -1.23276 0.2210146 -0.51304746 0.44919994 -1.0497717 0.3691052
-0.42411405 -0.25630265 0.8459601 -0.5085238 0.6086358 0.1875859 0.49019954 -0.60358566

bias f4 [2]
00000000: bfcf afbd afaf 9cbe
-0.08584546 -0.30602786
