MyVariableRNN_temporal_only.pth (torch_old, 27840 bytes, 12 tensors)

weight f4 [75, 30]
00000000: f414 fa3c a509 e13e 8b8d cb3e 6540 01bd
00000010: 2308 29bd fdc1 52bd afdf abbd 65c4 86be
00000020: fdfb de3d 44a4 933e 5f28 a6be e7a8 55be
00000030: 2cc9 253e cda3 013d 22b9 663e 4604 d8bd
00000040: a638 4cbe edf9 bfbd 4278 4dbf 935f a73e
00000050: 70c6 c1be ed86 11bd d3d6 2d3d 2186 49be
00000060: e37b b6bc 9130 953e 9d98 1ebd e3c9 463e
00000070: 6664 15bd d71f ffbe 4309 8c3e 1d52 9c3e
00000080: 300d 6b3d 5181 68be 71a1 23be 785b 17be
00000090: ef79 22be c74b 6f3e 2059 0fbd 970a babd
000000a0: d162 8f3e e8d3 af3e 494d 9d3e 696f 3abf
000000b0: a4cf 5e3e ce2d 9ebe c374 04be 1429 733b
000000c0: 759a 78be e202 523e 62d0 e8bd f32c 6039
000000d0: 1370 e4be 7336 9e3c 487a 953e eb6f 2cbe
000000e0: e7a0 9e3d 5a87 18bf 834f cabe 8a19 c6bc
000000f0: 50fb a2bd e8de 813e 06de ca3a 3e80 2abf
00000100: 5d6e fcbe c26f a8be 3f78 dabd 616a 8abe
00000110: 304d 80bd d898 51be 8d6f 223e 61c8 563e
00000120: ba2a 653e 9488 f73e 0963 c43e 24d0 503b
00000130: 0487 eabd 6300 aabd de93 6d3e b6f0 8fbe
00000140: e33a e8bd 9a4d 183e 9d4a a83d 38e6 c73e
00000150: f399 5bbe a47f 083e 906d 91be 446c d73e
00000160: 2e7f 35be d492 413e 0100 85be ee65 06bf
00000170: 97ef dabe 922e 8ebd 6bc5 8f3d ff87 493e
00000180: dd14 17be 9476 dabd a185 573d d3d2 883e
00000190: 3223 18bf 2636 56be ad62 ebbc ba30 80bf
000001a0: 989f bcbe e39e 1dbe 74d6 0c3e 8a50 393e
000001b0: ff6d 72bd 862d 773e 9fd5 a73e 21df 843c
000001c0: 20cb 82be 0159 9fbe a699 8bbd 1e09 35be
000001d0: 94bf 6bbc 3754 63be 6a5f 5c3e fa83 333e
000001e0: 1258 5a3e ca88 0cbe bf08 563b babc 2c3d
000001f0: fb40 d63d 0190 7ebe 17ec 04be f712 583e
00000200: 64b5 003e d294 623e f384 a7be cca4 323e
00000210: 1e36 bfbc 2b10 993e 0993 0b3e ba26 e93d
00000220: 7743 763d c0b5 363d d9c1 f1be e618 85be
00000230: 947e ebba ab19 e23d e9bc 79bd 8e61 983e
00000240: ec17 7cbe 5d65 35bf 34e5 d5bd 7b5d 9d3d
00000250: 3c8a 8b3e 7fd8 153e bf20 0f3d a43f cabe
00000260: abf4 f7bd 41c3 e0be 2f4e cdbc 1047 b23c
00000270: 4b58 eabe 05e1 a2be 7044 643e bb39 a13b
00000280: 3045 4a3e 8539 be3d 9bfe a2bd 7543 00be
00000290: 3b4f 4ebe fc2e a9be 1e96 4e3e 1a73 2c3e
000002a0: ec17 4e3d d53f 8e3e 1a55 2f3e 363f 433e
000002b0: 7641 74be 6bf6 81bd beae d53d 0747 87be
000002c0: 660e d5b7 377a bfbd c809 6e3d acb0 73bf
000002d0: f2ea cdbd 87b7 b53e 2296 cabd 6f6a 9b3e
000002e0: 3e70 113f b96a 2e3e eac0 2f3d b46b 13be
000002f0: b739 733d 966c 9ebc 5d62 0bbf 5cc9 7f3e
00000300: 9c08 953e 3238 2dbe b769 90be 0fa6 b93d
00000310: 71f3 3a3d 0c79 52bd 1e62 b4be e9cd b93d
00000320: e91d 043d 8c5e 72be 02a4 0cbf d984 02bf
00000330: c9a3 d03d af24 61b9 7668 b43d f1d7 753c
00000340: b5d4 7bbe e5e6 19be ebfc 9ebc e5ab f4bd
00000350: 4787 b53d 1132 303e 9b2c c3bd a422 5abf
00000360: 8db2 4d3e ac9e eebd ca49 14bd 8d50 fc3e
00000370: 3cb5 413d 9070 003e 4272 02be c488 4d3e
00000380: 7892 213f 8c2b 323d 6f2e c3be a04c 82bd
00000390: 63f8 66bd b838 15bf 5441 773c 720b bbbe
000003a0: 4e56 bfb8 4320 95be cbad 77be 378b b13d
000003b0: 4f93 9d3e 5dae 5f3e 0463 d4bd 883e 82be
000003c0: e623 afbd 75f2 373e 23c8 b63d 2ba8 1abf
000003d0: 03e1 9bbe e20d 2d3e 1274 483e c1dd 2d3d
000003e0: 1417 0f3b 14e4 bf3e f00f d13d 0121 32be
000003f0: 897d 80be 62b4 f3bc 834f 653e 5733 9ebf
0.03052757 0.4395267 0.39756426 -0.031555552 -0.041267525 -0.051454533 -0.08392274 -0.26321712
0.10887907 0.28836262 -0.32452676 -0.20865212 0.16190022 0.031650353 0.2253156 -0.1054769
-0.19943485 -0.093738414 -0.80261624 0.32690105 -0.37846708 -0.035529066 0.0424412 -0.19680072
-0.02227587 0.29138616 -0.038719762 0.19412951 -0.0364727 -0.4982898 0.27350816 0.30531397
0.057385623 -0.2270558 -0.15979554 -0.14780986 -0.15866826 0.2336875 -0.034997106 -0.09084051
0.28005078 0.3434136 0.30723026 -0.7282625 0.21758896 -0.3089432 -0.12935166 0.0037103342
-0.2427767 0.20508912 -0.11367871 0.0002137905 -0.44616756 0.019313073 0.29194856 -0.16839568
0.077455334 -0.5958153 -0.39513788 -0.0241821 -0.0795809 0.25365376 0.0015477545 -0.6660193
-0.4930295 -0.32897764 -0.10667466 -0.27034286 -0.06264722 -0.20468462 0.15862866 0.20974876
0.2237958 0.48346388 0.38356808 0.0031862343 -0.114515334 -0.08300855 0.23200938 -0.28113335
-0.11339357 0.14873353 0.08217356 0.3904283 -0.21445446 0.13329941 -0.28403902 0.42074788
-0.17724296 0.18903667 -0.25976565 -0.5249928 -0.42760918 -0.06942476 0.07020076 0.19680785
-0.14754052 -0.10667148 0.052617673 0.26723346 -0.59428704 -0.20919093 -0.028733576 -1.001487
-0.3684051 -0.15392642 0.13753682 0.1809713 -0.05918693 0.2413846 0.32780167 0.016219677
-0.25545597 -0.31122592 -0.068164155 -0.17679259 -0.0143889375 -0.22200094 0.21520773 0.17530814
0.21322659 -0.13724056 0.0032659022 0.04217217 0.10461613 -0.2485962 -0.12980686 0.21100985
0.12569195 0.22127083 -0.3271862 0.17445678 -0.023341235 0.29895148 0.13630308 0.1138434
0.060122933 0.044606924 -0.47218207 -0.25995559 -0.00179668 0.11040052 -0.060971174 0.29761928
-0.246185 -0.70857793 -0.10444108 0.076838456 0.27253902 0.14633368 0.03494334 -0.3950168
-0.121072136 -0.43898967 -0.025061695 0.0217624 -0.45770487 -0.318123 0.22291732 0.004920212
0.19752955 0.09288315 -0.079587184 -0.12525733 -0.20147412 -0.3304366 0.20174453 0.16840783
0.050315782 0.27783075 0.17122307 0.19067082 -0.23853096 -0.063458286 0.1043372 -0.26421377
-2.5398283e-05 -0.093494825 0.058114797 -0.95191455 -0.10054578 0.35491583 -0.09891917 0.3035464
0.56811893 0.17032899 0.042908587 -0.14396554 0.059381213 -0.019338887 -0.54446965 0.24979156
0.2910813 -0.16915968 -0.28205654 0.09064876 0.04564232 -0.05138497 -0.35231107 0.09072477
0.032255087 -0.2366888 -0.54937756 -0.5098396 0.101874895 -0.00021471338 0.08808987 0.015005098
-0.2459286 -0.15029486 -0.01940771 -0.11946849 0.08863693 0.17206599 -0.09529992 -0.8520911
0.20087643 -0.11651358 -0.036203183 0.49280205 0.04729198 0.12542939 -0.12738898 0.20071703
0.6311412 0.04349856 -0.38121364 -0.06362271 -0.056389224 -0.5828967 0.015091259 -0.3653217
-9.123665e-05 -0.29126176 -0.2418739 0.08669131 0.3077645 0.21843858 -0.10370448 -0.25438333
-0.08551769 0.17963584 0.08924892 -0.60412854 -0.30445108 0.16899827 0.19575527 0.04244781
0.0021833824 0.37478697 0.10208118 -0.17395402 -0.25095776 -0.0297491 0.22393613 -1.2359418

bias f4 [75]
00000000: 859f f9bd 964b 46be 4ecd c7bd b43b ab3e
00000010: 20ef df3d fe4b 7bbc 0b49 123e 8f5f ec3c
00000020: 0e8c 2a3e 0195 013d 9332 7fbd bd3d bfbd
00000030: 5f56 8dbd ff9b 64be 374e 26be 3649 8e3d
00000040: afde 07bd ce09 8d3c b05e d6bb bee9 94be
00000050: 06c1 a7be 183c 7cbc 4a7b 3fbd d4b4 a6bd
00000060: fd91 6fbe e342 3ebe 1da3 73bd 1af3 323e
00000070: 71ef 533d 8c71 073e 46dd 103e 3fb4 69be
00000080: fe66 4ebe daca 11be ddc8 0a3e 8fb7 60bb
00000090: 9958 d23d 2fd0 363e 9434 333e 9f1b 87be
000000a0: 670d a93d d0c5 6bbe 6e27 d1bd 2655 093e
000000b0: 590e 433d 3655 bfbd e4c5 6f3d 5c57 f9bc
000000c0: 8a6a 323e 0eee a3bd 17d3 a0be 8cbf a13c
000000d0: 3885 463d 566a 2dbe cea5 0d3e b4e3 4bbd
000000e0: fcc1 36be f760 e13d f0f9 45bd 3cb4 81be
000000f0: bbd8 b23c e9a4 823d 2524 a53d d87e ad3e
00000100: 38cd c83d 0f72 57be 3cf3 78bd 026e 263e
00000110: 6873 a5bd 0ae5 f6bc ad8a cbbc f9cb 8e3d
00000120: beb1 11be f63d 23be 9538 d3bc
-0.12188629 -0.19364771 -0.09755956 0.33443987 0.10934281 -0.015337942 0.14285676 0.02885416
0.16654989 0.03163624 -0.06230409 -0.093379475 -0.069012396 -0.22325133 -0.16240774 0.06947558
-0.033171352 0.01721659 -0.0065420493 -0.2908458 -0.32764453 -0.015395187 -0.046748437 -0.08139959
-0.23395534 -0.18580203 -0.05948173 0.17475548 0.05174202 0.13226908 0.14146909 -0.22822665
-0.20156476 -0.14237538 0.13553186 -0.0034289097 0.10270805 0.17852853 0.17500526 -0.2638826
0.082545094 -0.23024678 -0.10212599 0.13411388 0.047621105 -0.093424246 0.058538333 -0.030437164
0.17423454 -0.0800439 -0.3141105 0.019744657 0.04846689 -0.16935095 0.1383278 -0.0497777
-0.17847437 0.11004823 -0.048334062 -0.2533282 0.02183186 0.0637911 0.08063535 0.33885837
0.09804767 -0.21039604 -0.06077884 0.16252902 -0.080786526 -0.030138511 -0.0248464 0.069724984
-0.1422796 -0.15941605 -0.025783816

weight f4 [10, 75]
00000000: fa36 e83c 17d4 963f 7af2 5dbf 52e8 b83c
00000010: ea7b 0a3d a092 0c3f ee91 25bf e31a 053e
00000020: 8ad3 49be 4df2 04bf 8016 ac3e d989 173c
00000030: 0c7e 54be 1087 e0bd 81cc ebbe 6b0e 1bbe
00000040: a067 8e3e 68ff 3cbf 6ab3 babd 9bdc 723e
00000050: 846e 133f 5e3b 22be ff35 253e 455f 1fbf
00000060: c0da 863e 697d c9be 8352 12bf 1e0d a0be
00000070: 6997 18bf f225 5a3e 8e2d 573e bc82 4cbe
00000080: 453b 86be 46c2 1b3c 4a80 323e 51c2 9cbe
00000090: b12f eabd 7e3d 0bbf fe89 ce3d 3778 593c
000000a0: 202e 0abf fd43 b03f e7a6 733f 0ed9 08bf
000000b0: ccc0 aa3e 2ad1 37bf e7e4 16be b021 7c3e
000000c0: dedb 453e ec3f e43f 83da 213e 7b85 fcbe
000000d0: cd88 4bbf 3bca 173c 5504 173e 399d f9be
000000e0: 1504 cfbd 916b 7fbe 0961 e83b 645d b43d
000000f0: 1d39 f63e 988a 63bf ef35 373e 19b1 24be
00000100: 92db f6be 09b1 8cbf 3982 0a3e c761 b2be
00000110: 3e3a 31be 7e12 723d 18d9 1dbf 520b 2ebe
00000120: 1788 c13f 77fe 0fbe 74cd 4a3c db12 453d
00000130: 564a 4c3e 9860 993d 3fdb 2c3f 7821 d13d
00000140: ed15 3c3d 2bdc b13d cda1 4cbe 8e20 af3e
00000150: d407 e3be 3a39 5dbf 6bfb efbe b14e 2c3d
00000160: be40 bfbd 1ebe f7bc 4f28 a2be f951 c33e
00000170: 3ad2 253f e4c2 0c3e 7c27 31bf 725f 0dbf
00000180: 0505 833d e8f4 d2bc ee2d 00bd 3e1d a2be
00000190: 236e 0f3e bb52 a33d 6b4b 92bb d9cc 573e
000001a0: 9e2b 17bf d4e5 a4be b571 38bd 0c70 453f
000001b0: bf1a 433e 48dc 0fbe 4def 87bd 810f a8bd
000001c0: fbbd bf3d 1e9c 903e 0ed6 02be 70b4 b93d
000001d0: 056b b33e 49aa 05bf ad53 813f 5206 8bbe
000001e0: 81f2 2d3f 170e 5c3e 4b6c 663f 8d7c e0bc
000001f0: 2b3e b83e 77d5 013f 0c52 37be a025 a23d
00000200: 8ed4 a8be 0468 00bf 42b8 46bd 0c4d a2be
00000210: a759 09be f9d7 1ebf 024e 4ebf 729e 2dbe
00000220: 262a 3abe 4b60 c9be c847 4c3d bd0f d3be
00000230: 01a6 54bd 025b 0e3d ddea fa3d 175f 71bf
00000240: 1fdf 9b3e e2e6 e9bd 87d0 7abf 2212 413f
00000250: 3f55 51be b923 bdbd dacd cabe 3880 2abf
00000260: 5fe9 24bf 00cc 9a3f 46a2 f43d 7802 033f
00000270: 64b8 35be 3970 073d d655 d23e de77 b1bf
00000280: 86b7 62bf 4e62 31bf ece2 3fbe 2d13 893f
00000290: 4687 71bb ea2f fcbe eac8 7e3f 6aab 9abe
000002a0: fe03 ba3e 0fcc 77be a419 1ebf 5318 c0be
000002b0: 297f 093d e100 c2bd 69d8 cdbd ca0a 7cbd
000002c0: 28a9 6cbe e3b5 ad3d bc76 a13e 9854 2dbf
000002d0: 92cf 703e 5286 073e 7198 e03e c9ec 383f
000002e0: 10b7 babd ed6a 2fbd 3807 9ebe f18e 323e
000002f0: bbd1 be3d bacf bb39 3a2f 99bd 560e 6a3e
00000300: d3a8 08bf 41c3 803f 53f2 86bd 2d4a 8c3f
00000310: 93cf fd3e 773e 38bd b0f1 973d 2813 233f
00000320: d6c6 0abf 7ebd 953c 7eb9 10bd 4639 28bf
00000330: 8182 753d 0ed6 86be 00bd aabf 9861 aabe
00000340: 5027 37bf dc83 efbe 32b0 e03e 188e a4bc
00000350: d88c ef3d 75d4 97bd 0683 cd3c a6c1 db3d
00000360: b9c6 383e 9f10 4c3b 8f4e dabe afbb 13be
00000370: e598 a73d b43a a4bf af52 a7bf a96c 9d3d
00000380: 78c8 183c 90eb b2bb 633c 2bbf 421e 653d
00000390: 5283 27bf 3956 88bc dee0 5fbf 26ef 223e
000003a0: 7381 89bf 7660 703d 073c ac3e 53d5 363e
000003b0: 0b14 d93d df6a 2b3e 884d 9bbe 0940 a03e
000003c0: 4f4f af3e ce48 32bf d826 173f bd74 05be
000003d0: af51 093f 9805 f4be e8f7 dbba d97f 233e
000003e0: 2dcd 673e 01ae a43d 7514 03be 1f87 183f
000003f0: a969 11bb 88ab 1dbf a038 b73c 0f80 223e
0.028346527 1.1783475 -0.86698115 0.022571716 0.03380958 0.5491123 -0.64675796 0.12998538
-0.19709602 -0.5193222 0.33610916 0.009249174 -0.20751208 -0.10963261 -0.46054462 -0.15142219
0.27813435 -0.7382722 -0.09116252 0.23716967 0.5759051 -0.1584296 0.16133879 -0.62254745
0.26338768 -0.39353493 -0.5715715 -0.31260008 -0.59606034 0.21303537 0.21013471 -0.19971746
-0.26217094 0.009506768 0.17431751 -0.30617002 -0.11434878 -0.54390705 0.10084914 0.01327329
-0.5397663 1.3770748 0.9517655 -0.534562 0.33350217 -0.71803534 -0.14735757 0.24622226
0.19322154 1.7832007 0.15806012 -0.49320588 -0.79505616 0.009264524 0.14747746 -0.48752764
-0.101082005 -0.24943377 0.0070916456 0.08806875 0.4809045 -0.8888335 0.17891668 -0.16083182
-0.48214394 -1.0991527 0.13526239 -0.34840223 -0.17307374 0.059099667 -0.61659384 -0.16996506
1.5119656 -0.14061914 0.012378085 0.048113685 0.19950232 0.07489127 0.67522043 0.10211462
0.045919348 0.08684572 -0.19983597 0.34204525 -0.4434191 -0.86415446 -0.46871504 0.042067233
-0.093385205 -0.030242022 -0.31671378 0.38148478 0.64773905 0.1374622 -0.69200873 -0.55223763
0.06397442 -0.025751546 -0.031293802 -0.31662935 0.14006858 0.07974764 -0.004464557 0.21074237
-0.5905093 -0.32206595 -0.045030314 0.77124095 0.19053172 -0.14048874 -0.0663744 -0.08206082
0.09362408 0.28244108 -0.12776968 0.09067619 0.35042587 -0.5221296 1.0103661 -0.2715326
0.67948157 0.2148975 0.9000899 -0.02740314 0.3598493 0.50716347 -0.17902392 0.07917333
-0.32974666 -0.50158715 -0.048515566 -0.31699407 -0.13413106 -0.620483 -0.8058778 -0.16954973
-0.18180141 -0.39331278 0.049873143 -0.41222945 -0.051916126 0.03475476 0.12251828 -0.9428572
0.30443665 -0.114209905 -0.9797444 0.75418293 -0.20442675 -0.09235329 -0.39610177 -0.66601896
-0.64418596 1.2093506 0.11945014 0.5117564 -0.1774612 0.03306601 0.41081113 -1.3864706
-0.88561285 -0.69290626 -0.18738908 1.0708977 -0.003685431 -0.49255306 0.9952532 -0.30208904
0.3633117 -0.24198936 -0.61757874 -0.37518558 0.033568535 -0.09472824 -0.100510426 -0.061533727
-0.23111403 0.08481958 0.315359 -0.67707205 0.23516682 0.13234833 0.43866304 0.72236305
-0.09116948 -0.04282658 -0.30864882 0.1743734 0.09317347 0.00035822188 -0.07479711 0.22857031
-0.53382605 1.0059587 -0.065891884 1.0960137 0.4957243 -0.044981446 0.07419145 0.63701105
-0.5420965 0.018278833 -0.03533315 -0.6571239 0.05993891 -0.26335186 -1.3338928 -0.33277583
-0.7154436 -0.46780288 0.43884426 -0.020087287 0.11696786 -0.0741357 0.02508689 0.10730295
0.18044557 0.0031137837 -0.4263806 -0.14427064 0.08183459 -1.2830415 -1.3072108 0.07686741
0.009325139 -0.00546021 -0.6688902 0.05593706 -0.65434754 -0.016642677 -0.87452495 0.1591154
-1.074263 0.058685742 0.33639547 0.17854814 0.10599526 0.16739987 -0.3033259 0.31298855
0.34240195 -0.6964234 0.59043646 -0.13032813 0.53640264 -0.47660518 -0.0016782256 0.15966739
0.22636862 0.08041001 -0.12800772 0.5958118 -0.0022188223 -0.6158986 0.022365868 0.15869163

bias f4 [10]
00000000: 0a93 2b3d 21e2 a13d 01a4 513d 325b 01be
00000010: 1307 773d 5566 8f3d 8ea9 ce3d f952 f6bd
00000020: 3823 4d3d 7abc 1abc
0.041888274 0.07904459 0.051181797 -0.12632445 0.06030948 0.0700194 0.10090934 -0.120275445
0.050082415 -0.00944435

weight_ih_l0 f4 [12, 10]
00000000: 9a4f 0c3f 88ca cdbe a1a0 773f cfa7 333f
00000010: 83aa 383d 547b e43e 2f4b 4b3f d42f 5a3e
00000020: 08c2 523f 916c 243f e511 89be bd24 06bf
00000030: 9aed 8abe 2d69 f9be 2b10 4abf 9446 17be
00000040: c784 8bbf d960 98be 0b2b cdbe 7fc7 80bf
00000050: 7f3d a43d 40c2 bbbe 02a4 f53e 8ba4 373f
00000060: be26 8c3e c725 ae3e 1eda 123f 88da 0a3e
00000070: 6e32 ef3e 260f 8a3f f948 0a3f 2682 d93e
00000080: 13d0 8a3e da92 cc3e 5be7 733e 48ca 1f3f
00000090: 48d9 7ebe 401b ab3e 8725 d33d 0d67 a33d
000000a0: eece 7b3d 5460 83be 610e a93d ae47 3a3d
000000b0: 24c3 de3e 8c9b 623d ae06 0ebe 43de b43d
000000c0: 4d94 9ebc a6de 323e aed6 d3bd dc72 643e
000000d0: e764 b63e 1325 ae3c 93b9 9f3d 96df ec3e
000000e0: 99c4 a1be 542d 30bf 4fd9 123e 08c5 00bf
000000f0: ceaa 9fbd 29de 41bf 586b fcbe ec3f 0e3f
00000100: 5aa8 033d 5a0d a63e 0f6c ba3d ba3e 593f
00000110: 80d9 353e ca63 fa3e 8a4b 103d 063a 3d3e
00000120: 711f 3c3d 3526 0dbe bf8d f6bd 7458 56be
00000130: 1f24 7d3f 9423 eb3e 062e 1a3e 1a2e 62bd
00000140: c852 8d3e d972 63bf e4b2 7ebf 6a73 193e
00000150: 6f9e 75be f079 eabd d76e 1dbf e638 133f
00000160: c199 5cbf 66b8 fc3d 9264 7fbf b5a8 3b3d
00000170: c89f 19bf ec85 603e 5629 c33e a876 bb3e
00000180: 1f93 17bf 2fc8 263f bb55 b9be 0f23 2fbf
00000190: 19b1 57bd 3ef5 08bf bdff 0bbf 3512 cebe
000001a0: a634 eabd 77eb 8ebe 207d c7be 0f55 903e
000001b0: b4aa 08bf 1c47 d53d 17fc 97bf 364b 293e
000001c0: 3531 b53e 5fa8 3e3f cc79 043f 57e4 3f3f
000001d0: 6b61 343e fd72 21bd 5118 1a3e 29a2 3bbf
0.5480896 -0.40193582 0.96729475 0.7017793 0.045084488 0.44625342 0.79411596 0.21307307
0.8232732 0.6422816 -0.26771465 -0.5239981 -0.271344 -0.48713055 -0.7893092 -0.14773017
-1.0899895 -0.2976139 -0.40071902 -1.0060881 0.08019542 -0.36671638 0.4797669 0.7173545
0.27373308 0.34013197 0.5736407 0.13559926 0.46718162 1.0785873 0.540176 0.42482108
0.27111873 0.3995579 0.23818724 0.6241803 -0.24887574 0.33419228 0.10309892 0.0797864
0.06147664 -0.2565943 0.08254696 0.045478515 0.43508255 0.055324122 -0.13869736 0.088314556
-0.019357825 0.17467746 -0.10343681 0.2230944 0.35623857 0.021257913 0.07799067 0.46264333
-0.31595305 -0.68819165 0.14340709 -0.50300646 -0.0779625 -0.75729614 -0.49300647 0.5556629
0.032142974 0.3243206 0.09102642 0.8486134 0.17758751 0.48904258 0.03522829 0.18479165
0.045928422 -0.13784106 -0.12038755 -0.2093218 0.9888324 0.4592558 0.15056619 -0.055219747
0.2760222 -0.8884712 -0.99491715 0.14985433 -0.23986219 -0.11449039 -0.61497253 0.57508695
-0.8617211 0.12339859 -0.99762833 0.04581519 -0.6000943 0.21926087 0.38117474 0.36613965
-0.59208864 0.65149206 -0.3619822 -0.6841287 -0.052659128 -0.5349921 -0.546871 -0.40248266
-0.11435823 -0.2791402 -0.3896265 0.28189895 -0.5338547 0.10413954 -1.1873807 0.16532597
0.35389104 0.74475664 0.5174835 0.74957794 0.17615287 -0.039416302 0.15048338 -0.7329431

weight_hh_l0 f4 [12, 4]
00000000: 648b 06bf e163 d73e db50 01bf b37f cdbe
00000010: 4f80 953e 66d0 343d cb5c 583e 4265 acbd
00000020: cc75 57bd 5dd8 5ebf aed0 ff3c a3fd 223f
00000030: 7d88 98be 2401 95be d49d 6bbe 2a93 aabe
00000040: 4d20 1dbf 09fe d03e b2d5 e7be be57 f83b
00000050: 647e c2be 4b89 b03e 698e 46bf 5ee3 3d3f
00000060: 32f5 81bf d042 b23e 4049 0ebf 367b d9bd
00000070: 6753 0ebe edb6 01bd 961d 34bf 6bca 243f
00000080: 5feb 543f 4167 5d3f a4da ac3e ea46 823d
00000090: 52f1 693e 66b1 0b3e dce6 eabd 0c3b 793e
000000a0: 4a01 7c3f 66b9 243f ad12 5f3e c1fd 01be
000000b0: 0aca 37bd 5024 4d3f cdde 87be 90a2 8d3f
-0.52556443 0.4206839 -0.50514 -0.4013649 0.29199454 0.044144057 0.21129148 -0.08417751
-0.052602574 -0.87048894 0.031227436 0.6366827 -0.29791632 -0.29102433 -0.23009425 -0.33315402
-0.6137741 0.40818813 -0.45280224 0.007578819 -0.37987053 0.34479746 -0.7756105 0.7417506
-1.0152953 0.348166 -0.5558052 -0.10619204 -0.13899003 -0.031668592 -0.70357645 0.64371365
0.8317165 0.8648568 0.3376056 0.06361182 0.22845963 0.13641891 -0.11469814 0.24338931
0.98439467 0.64345396 0.21784468 -0.12694456 -0.044870414 0.80133533 -0.2653717 1.1065235

bias_ih_l0 f4 [12]
00000000: 9007 fe3e aec8 33bf 88c3 953e 9f8f 533f
00000010: 81fc 5e3f e67d dd3f d09c 463f aba8 843f
00000020: 2e50 8a3e d182 5dbd 1892 a2bd 59e2 9ebe
0.49615145 -0.7022809 0.2925074 0.82641023 0.8710404 1.7304046 0.77583027 1.0363973
0.27014297 -0.054079834 -0.079380214 -0.31032065

bias_hh_l0 f4 [12]
00000000: a111 283f 3268 03bf aee4 2e3f e44c 1b3e
00000010: 77af a63f ff07 723f ea30 743f 281f ad3e
00000020: e867 62be 9688 103e 840a 9b3c 8069 9e3e
0.656519 -0.51330864 0.6831769 0.1516605 1.3022298 0.9454345 0.95387137 0.33812833
-0.2210995 0.14114603 0.018925913 0.30939865

weight f4 [8, 4]
00000000: 009e 913e bfbb 763f f269 1c3e ae25 7e3e
00000010: e3e7 903f 3347 62be d256 0b3f 0657 b23e
00000020: b8df 1abf 1ec4 9bbd 2539 29bf 2146 39bf
00000030: dd26 afbe 3c15 233c 0715 223e 3215 1fbe
00000040: d7d3 b23f b944 603f a49c cb3e 56db 9c3e
00000050: 8508 143d 638f 12bf 47b7 a6be 709e 64bf
00000060: f450 12bf 3255 41bf cdb8 04bf 5f90 68bf
00000070: 0f47 32bf bb4f 41bf 65df babe c9c2 91be
0.28440857 0.9638023 0.1527479 0.24819061 1.1320766 -0.22097473 0.5442935 0.3483202
-0.6049762 -0.07605766 -0.6610282 -0.72372633 -0.34209338 0.009953793 0.15828334 -0.15535429
1.3970898 0.8760486 0.39767945 0.3063609 0.036140937 -0.5725004 -0.32561705 -0.89304256
-0.57154775 -0.7552062 -0.51844484 -0.9084529 -0.69639677 -0.75512284 -0.36498562 -0.28468922

bias f4 [8]
00000000: 70dc 333e ab2f 0a3f b424 ad3e 3785 eebe
00000010: c186 943e 1c73 553e bd28 febc 343e 613e
0.17564559 0.53978986 0.33817065 -0.4658601 0.2900906 0.20844692 -0.031025285 0.21996385

weight f4 [2, 8]
00000000: 909d d0be bbbe 70bf b464 153f 0f8d bdbc
00000010: b9f6 48bf ba0d fa3e f7b9 103f cbeb e73e
00000020: 439b bf3e 8dea 213f 8794 81be 3759 ce3c
00000030: 3455 8b3f 5d4e 5ebf 68d7 fabe 3cc8 b2be
-0.4074521 -0.9404103 0.58356786 -0.023138551 -0.7850147 0.48838598 0.5653376 0.45297083
0.37423143 0.6324852 -0.2530863 0.025189025 1.0885377 -0.8683832 -0.48992467 -0.34918392

bias f4 [2]
00000000: 1f13 b33d 25d6 5dbe
0.087438814 -0.21663721
